{"format": "torch", "nodes": [{"name": "mapper", "id": 6547891088, "class_name": "Mapper(\n  (fc1): Linear(in_features=56, out_features=128, bias=True)\n  (fc2): Linear(in_features=128, out_features=256, bias=True)\n  (fc3): Linear(in_features=256, out_features=512, bias=True)\n  (fc4): Linear(in_features=512, out_features=256, bias=True)\n  (fc5): Linear(in_features=256, out_features=128, bias=True)\n  (fc6): Linear(in_features=128, out_features=31, bias=True)\n  (drop): Dropout(p=0.0, inplace=False)\n  (bn1): BatchNorm1d(128, eps=1e-05, momentum=0.1, affine=False, track_running_stats=True)\n  (bn2): BatchNorm1d(256, eps=1e-05, momentum=0.1, affine=False, track_running_stats=True)\n  (bn3): BatchNorm1d(512, eps=1e-05, momentum=0.1, affine=False, track_running_stats=True)\n  (bn4): BatchNorm1d(256, eps=1e-05, momentum=0.1, affine=False, track_running_stats=True)\n  (bn5): BatchNorm1d(128, eps=1e-05, momentum=0.1, affine=False, track_running_stats=True)\n  (bn6): BatchNorm1d(31, eps=1e-05, momentum=0.1, affine=False, track_running_stats=True)\n  (prelu1): PReLU(num_parameters=1)\n  (prelu2): PReLU(num_parameters=1)\n  (prelu3): PReLU(num_parameters=1)\n  (prelu4): PReLU(num_parameters=1)\n  (prelu5): PReLU(num_parameters=1)\n  (prelu6): PReLU(num_parameters=1)\n)", "parameters": [["fc1.weight", [128, 56]], ["fc1.bias", [128]], ["fc2.weight", [256, 128]], ["fc2.bias", [256]], ["fc3.weight", [512, 256]], ["fc3.bias", [512]], ["fc4.weight", [256, 512]], ["fc4.bias", [256]], ["fc5.weight", [128, 256]], ["fc5.bias", [128]], ["fc6.weight", [31, 128]], ["fc6.bias", [31]], ["prelu1.weight", [1]], ["prelu2.weight", [1]], ["prelu3.weight", [1]], ["prelu4.weight", [1]], ["prelu5.weight", [1]], ["prelu6.weight", [1]]], "output_shape": [[24, 31]], "num_parameters": [7168, 128, 32768, 256, 131072, 512, 131072, 256, 32768, 128, 3968, 31, 1, 1, 1, 1, 1, 1]}, {"name": "inverter", "id": 6548675552, "class_name": "Inverter(\n  (fc1): Linear(in_features=31, out_features=128, bias=True)\n  (fc2): Linear(in_features=128, out_features=256, bias=True)\n  (fc4): Linear(in_features=256, out_features=256, bias=True)\n  (fc5): Linear(in_features=256, out_features=128, bias=True)\n  (fc6): Linear(in_features=128, out_features=56, bias=True)\n  (drop): Dropout(p=0.0, inplace=False)\n  (bn1): BatchNorm1d(128, eps=1e-05, momentum=0.1, affine=False, track_running_stats=True)\n  (bn2): BatchNorm1d(256, eps=1e-05, momentum=0.1, affine=False, track_running_stats=True)\n  (bn3): BatchNorm1d(512, eps=1e-05, momentum=0.1, affine=False, track_running_stats=True)\n  (bn4): BatchNorm1d(256, eps=1e-05, momentum=0.1, affine=False, track_running_stats=True)\n  (bn5): BatchNorm1d(128, eps=1e-05, momentum=0.1, affine=False, track_running_stats=True)\n  (bn6): BatchNorm1d(31, eps=1e-05, momentum=0.1, affine=False, track_running_stats=True)\n  (prelu1): PReLU(num_parameters=1)\n  (prelu2): PReLU(num_parameters=1)\n  (prelu3): PReLU(num_parameters=1)\n  (prelu4): PReLU(num_parameters=1)\n  (prelu5): PReLU(num_parameters=1)\n  (prelu6): PReLU(num_parameters=1)\n)", "parameters": [["fc1.weight", [128, 31]], ["fc1.bias", [128]], ["fc2.weight", [256, 128]], ["fc2.bias", 
…
